classifier/best.pth (torch, 35576 bytes, 4 tensors)

linear_one.weight f4 [32, 256]
0.062125713 -3.87118e-05 -0.023678709 0.007898289 0.030865718 -0.029255338 0.014160725 -0.07767149
0.04151348 0.020063013 0.07559977 0.01198646 0.032696325 -0.0022322095 -0.07522795 -0.03699788
-0.013069774 -0.05428741 -0.037376363 0.06646908 0.04007671 -0.045591492 0.007567222 -0.058069356
-0.070703074 -0.054297615 -0.027748475 -0.018108128 0.058865868 0.061824173 -0.050623827 0.047275037
-0.0029691716 -0.24402267 -0.06805054 -0.019542899 0.09149598 0.013906132 0.067409724 -0.022571102
-0.016338559 -0.05952032 -0.020246288 0.03982072 0.045532793 0.08675227 0.14019868 0.081630245
0.078657985 0.06330043 0.023791209 -0.02304992 0.037434068 -0.043271963 -0.02957171 0.021713268
-0.11775163 0.13207585 -0.042260274 0.08859311 0.053235836 -0.06450958 0.025203392 -0.079786316
0.05510697 -0.005047031 0.0008259547 0.0049027926 0.041056745 0.0012176575 -0.049611595 -0.0029340088
-0.119570345 -0.056698825 -0.0658485 -0.016789628 0.014736381 0.09993364 0.113712505 -0.048771475
0.029121462 -0.01023708 0.04693643 0.013595157 -0.048458412 0.023680484 0.21580562 -0.045684118
-0.03963664 -0.031327188 -0.015785214 -0.028823024 0.057483703 0.07596316 -0.01212503 0.010211461
0.03636674 -0.08571643 -0.0061975513 -0.012134912 -0.06547994 -0.012178018 0.1367467 -0.045977354
-0.009734628 -0.00073263457 -0.017067214 0.0013929057 0.033144407 -0.034581326 0.105650134 -0.025870658
0.032414045 -0.029236235 -0.035028215 -0.001889425 0.03412293 -0.03996892 -0.017998638 -0.0004986072
0.00050091796 0.0553885 0.057942037 0.008173327 -0.031897627 -0.075760745 -0.07640994 -0.06786785
-0.08445821 -0.011711326 0.0788662 -0.015048635 0.060688343 0.01770473 0.005520811 -0.010414813
-0.014870595 -0.09231949 0.022808447 0.0276689 0.09078115 -0.014018059 -0.0204248 0.15901758
-0.058768343 -0.036445867 -0.0064322255 0.023239043 -0.028970277 -0.03051773 -0.01213124 -0.0017200941
-0.100378394 -0.043343242 -0.09008606 -0.032546513 0.0062709088 -0.06422714 0.017053427 -0.022166671
-0.0398935 -0.019699492 0.04518564 -0.0012323626 0.016016012 -0.005291074 0.05420566 0.032894984
0.026303612 -0.05303788 0.005888295 0.049044453 0.07628535 -0.06310415 0.00015986954 -0.030513775
-0.0710596 -0.046125054 0.03876234 0.0078049633 -0.0034346653 0.06633372 -0.053143766 0.04705795
-0.06605657 0.037494864 0.03589439 0.015960287 0.018412974 0.0064710346 -0.02771373 0.010538573
-0.21779124 -0.03302838 0.042086903 0.05568722 0.069309756 -0.029441869 -0.048260443 0.022094006
-0.05107985 0.052410197 -0.037139814 -0.043552224 0.047179975 0.06874957 -0.017296575 0.04249881
-0.045127116 0.037705474 -0.027687151 -0.070492364 -0.066294946 -0.013309668 0.018835435 -0.026933039
0.015687102 -0.01068705 -0.06006173 -0.0035385657 -0.075362995 0.11208291 -0.027724804 -0.014048081
-0.054203212 -0.02230597 -0.26794747 -0.020770332 0.06478547 -0.08627888 -0.02258871 0.07559882
-0.07739942 -0.05879715 -0.14398396 -0.018676851 -0.022481069 -0.04671395 0.09848487 0.06160216
0.022191485 0.029476995 0.010082717 -0.04766146 0.0041809706 -0.031122545 -0.012963493 0.050242495
0.010440096 -0.057726834 -0.06985879 -0.039114412 -0.0018261535 -0.13506511 0.025861088 0.035654116
00000000: 8877 7e3d 7b5e 22b8 daf9 c1bc d367 013c
00000010: 1ada fc3c e4a8 efbc 6302 683c 3b12 9fbd
00000020: 0a0a 2a3d 305b a43c 0dd4 9a3d db62 443c
00000030: 95ec 053d 434a 12bb 1d11 9abd 178b 17bd
00000040: 9b22 56bc 7a5c 5ebd f517 19bd f120 883d
00000050: 7a27 243d 25be 3abd 76f6 f73b 22da 6dbd
00000060: c6cc 90bd 2d67 5ebd c550 e3bc 7f57 94bc
00000070: 561d 713d 583b 7d3d ee5a 4fbd 78a3 413d
00000080: 6f96 42bb 14e1 79be 155e 8bbd 6e18 a0bc
00000090: 3f62 bb3d 8cd6 633c 1c0e 8a3d 08e7 b8bc
000000a0: 71d8 85bc 94cb 73bd 8bdb a5bc 0d1b 233d
000000b0: 9880 3a3d 2dab b13d 3e90 0f3e c22d a73d
000000c0: 7017 a13d a8a3 813d c8e5 c23c 30d3 bcbc
000000d0: 7754 193d f13d 31bd 5f40 f2bc 06e0 b13c
000000e0: c427 f1bd e43e 073e 1c19 2dbd 4e70 b53d
000000f0: d20d 5a3d 991d 84bd 5877 ce3c 0267 a3bd
00000100: d9b7 613d 9161 a5bb e284 583a 9ba7 a03b
00000110: 1e2b 283d ce99 9f3a 8735 4bbd 8048 40bb
00000120: 4ce1 f4bd 073d 68bd 94db 86bd 678a 89bc
00000130: dd70 713c 02aa cc3d 1ae2 e83d 99c4 47bd
00000140: 2290 ee3c 6db9 27bc 6a40 403d 39be 5e3c
00000150: 547c 46bd 93fd c13c 26fc 5c3e 451f 3bbd
00000160: 085a 22bd f050 00bd fe4f 81bc 431e ecbc
00000170: 0874 6b3d 9392 9b3d 10a8 46bc f94d 273c
00000180: 4af5 143d 188c afbd d414 cbbb 83d1 46bc
00000190: 591a 86bd 4f86 47bc 5407 0c3e c052 3cbd
000001a0: fd7d 1fbc 460e 40ba 8bd0 8bbc 2992 b63a
000001b0: 6ec2 073d 26a5 0dbd 195f d83d b4ee d3bc
000001c0: 97c4 043d d480 efbc bf79 0fbd 95a6 f7ba
000001d0: 7cc4 0b3d 73b6 23bd e171 93bc f6b4 02ba
000001e0: 0950 033a 0ddf 623d a154 6d3d 6be9 053c
000001f0: 16a7 02bd 7328 9bbd d17c 9cbd 4dfe 8abd
00000200: 6df8 acbd dde0 3fbc 9a84 a13d 8d8e 76bc
00000210: 5794 783d 8309 913c ebe7 b43b e4a2 2abc
00000220: cca3 73bc 0012 bdbd c8d8 ba3c e4a9 e23c
00000230: 78eb b93d 00ac 65bc e951 a7bc 81d5 223e
00000240: 13b7 70bd 4348 15bd 6bc5 d2bb ce5f be3c
00000250: 1353 edbc 5200 fabc 1cc2 46bc c874 e1ba
00000260: 3093 cdbd af88 31bd 0a7f b8bd 7e4f 05bd
00000270: 327c cd3b 8589 83bd a1b3 8b3c e196 b5bc
00000280: 5e67 23bd d460 a1bc 9414 393d 3a87 a1ba
00000290: 0334 833c bf60 adbb c106 5e3d e4bc 063d
000002a0: ac7a d73c 403e 59bd 99f2 c03b d6e2 483d
000002b0: 7e3b 9c3d c03c 81bd a7a2 2739 06f8 f9bc
000002c0: b287 91bd a0ed 3cbd 42c5 1e3d c7c0 ff3b
000002d0: 1f18 61bb f9d9 873d 47ad 59bd d6bf 403d
000002e0: ab48 87bd 3794 193d ff05 133d 26bf 823c
000002f0: ced6 963c f90a d43b e807 e3bc fba9 2c3c
00000300: ab04 5fbe c448 07bd 5163 2c3d 4818 643d
00000310: 46f2 8d3d 1330 f1bc beac 45bd 7dfe b43c
00000320: 1b39 51bd 13ac 563d eb1f 18bd d163 32bd
00000330: ca3f 413d 93cc 8c3d 8cb1 8dbc 3b13 2e3d
00000340: 36d7 38bd 0e71 1a3d 2ad0 e2bc 4d5e 90bd
00000350: a5c5 87bd cb10 5abc c54c 9a3c ada2 dcbc
00000360: 3d82 803c bd18 2fbc 4a03 76bd 48e7 67bb
00000370: ea57 9abd ba8b e53d 211f e3bc ec29 66bc
00000380: 3004 5ebd 02bb b6bc 6930 89be 8b26 aabc
00000390: 3fae 843d fbb2 b0bd f50b b9bc 8ed3 9a3d
000003a0: 9683 9ebd 48d5 70bd 8870 13be 3200 99bc
000003b0: 382a b8bc 2057 3fbd 6fb2 c93d 8c52 7c3d
000003c0: ebca b53c bd79 f13c fb31 253c aa38 43bd
000003d0: 8600 893b b5f4 febc d564 54bc 13cb 4d3d
000003e0: f00c 2b3c f972 6cbd 2012 8fbd 6f36 20bd
000003f0: 8b5b efba 824e 0abe a2da d33c 0d0a 123d

linear_one.bias f4 [32]
0.067235895 0.07137693 0.08177926 0.17883845 0.009781128 0.097794384 0.046304807 0.020102184
0.15934981 0.10268605 0.22122695 -0.0099326195 0.21050483 0.13741016 0.06716596 0.052644894
0.11435034 0.1997517 0.17211345 -0.012458257 0.11385536 0.12070449 0.10995947 0.12161453
0.14985193 0.05654521 0.012557626 0.10425843 -0.0006930433 0.12322922 0.048454322 0.24492602
00000000: f9b2 893d 112e 923d e27b a73d 6d21 373e
00000010: 0641 203c 6c48 c83d 1caa 3d3d 56ad a43c
00000020: 992c 233e 104d d23d 5189 623e 6dbc 22bc
00000030: 948e 573e 40b5 0c3e 4f8e 893d 2ca2 573d
00000040: 8330 ea3d b68b 4c3e 823e 303e b81d 4cbc
00000050: 002d e93d ea33 f73d 6e32 e13d 0a11 f93d
00000060: c972 193e f39b 673d 80be 4d3c 7285 d53d
00000070: 59ad 35ba 9a5f fc3d 0a78 463d e3cd 7a3e

linear_two.weight f4 [6, 32]
-0.24666719 -0.27478635 -0.5974956 0.63656783 0.18737534 -0.026888229 -0.19401596 -0.25794125
-0.22200257 -0.40869227 -0.21294357 0.095271066 0.25186765 0.77622813 -0.1059931 0.3059113
-0.5419466 -0.28083777 0.8493258 0.082595326 0.53603864 -0.16522858 0.0073498976 -0.21369022
-0.539997 0.38365808 -0.2512252 0.36569288 0.0854952 0.16899185 0.04062212 0.81658524
-0.14488058 -0.40748802 -0.41284665 -0.35313708 -0.014856226 0.32678837 -0.12189815 -0.1261332
-0.076951995 -0.13617991 -0.37305108 -0.23819172 -0.14635178 -0.2654275 -0.16448937 0.22382218
0.8214285 0.13859996 -0.0037896193 -0.43114844 -0.03242673 -0.39497036 -0.16468157 -0.3178351
-0.34462288 -0.10622198 -0.076594725 0.16128203 -0.23691653 -0.27091703 -0.07874646 -0.25088924
-0.36567017 0.5737423 0.057861853 0.36720976 -0.3386272 0.08961409 -0.25381878 0.04608194
0.16268298 0.52898973 0.55236185 -0.41281995 0.43302745 0.03359769 0.1386351 -0.45410836
-0.49519163 0.26744947 -0.5294727 -0.3960511 -0.25906554 0.43156704 -0.20744261 0.51652765
0.3730814 0.37478197 -0.09385403 0.29773492 -0.33827063 0.3354827 0.2381431 -0.34149098
0.44073963 -0.37282023 -0.16640076 -0.023123328 -0.292204 -0.2764041 0.009119576 -0.038478747
-0.35008717 -0.21524148 0.13753611 0.48505348 -0.48148355 0.20673752 0.20362547 0.14867502
0.32609072 0.49115467 -0.42129895 0.84217286 -0.050983258 0.17595169 0.10269955 -0.38356486
-0.15368721 -0.29329568 -0.16396551 -0.39832252 -0.16548547 -0.20086604 0.2843086 -0.19217409
-0.27498117 0.13205126 0.62991035 -0.539229 0.4575389 -0.5660015 0.101025805 -0.16922297
0.5298864 -0.31453577 -0.2901358 0.11588099 0.18614757 -0.25021765 -0.008750192 -0.4550179
-0.27458268 -0.47820207 0.178211 0.1839994 -0.35347477 0.19168414 0.43133923 -0.20382777
0.051294297 -0.111659884 0.6456123 0.28843167 0.6728792 -0.5502947 -0.45716265 0.24407052
0.33382475 -0.06745347 0.19243822 -0.17716563 0.0320665 0.14317459 0.4392926 0.5716327
0.12457491 0.4322799 0.53481615 -0.1541897 0.01780991 -0.49899164 0.020779246 0.24717519
0.04750849 -0.06403867 -0.24267732 -0.41482556 0.1738816 -0.32777244 -0.58422434 0.19357206
0.37560517 -0.18599588 -0.26006594 -0.37117887 0.15647183 0.2879604 0.3363773 -0.3981037
00000000: 5396 7cbe ccb0 8cbe 79f5 18bf 1cf6 223f
00000010: 52df 3f3e b444 dcbc 1fac 46be e010 84be
00000020: a454 63be 1d40 d1be e10d 5abe 7a1d c33d
00000030: ccf4 803e e3b6 463f e912 d9bd 68a0 9c3e
00000040: 03bd 0abf f8c9 8fbe 6a6d 593f bd27 a93d
00000050: d439 093f ae31 29be 69d7 f03b 9cd1 5abe
00000060: 3e3d 0abf d56e c43e 97a0 80be 193c bb3e
00000070: 1b18 af3d 330c 2d3e 6163 263d bb0b 513f
00000080: 935b 14be 45a2 d0be a360 d3be 62ce b4be
00000090: 8767 73bc ce50 a73e bda5 f9bd 1029 01be
000000a0: 0299 9dbd bf72 0bbe 8d00 bfbe 88e8 73be
000000b0: 3edd 15be 1de6 87be e76f 28be a431 653e
000000c0: 2349 523f 26ed 0d3e 435b 78bb 7dbf dcbe
000000d0: e4d1 04bd 8e39 cabe 49a2 28be 48bb a2be
000000e0: 6972 b0be e98a d9bd b2dd 9cbd 1e27 253e
000000f0: 3f9a 72be a3b5 8abe d345 a1bd 8e74 80be
00000100: 1f39 bbbe c6e0 123f 8d00 6d3d eb02 bc3e
00000110: 8b60 adbe 9887 b73d 89f4 81be 6bc0 3c3d
00000120: 5e96 263e df6b 073f 9667 0d3f 235d d3be
00000130: c6b5 dd3e bb9d 093d 5cf6 0d3e e480 e8be
00000140: c289 fdbe 23ef 883e 868b 07bf 36c7 cabe
00000150: 3da4 84be 5bf6 dc3e d66b 54be 283b 043f
00000160: 8604 bf3e 6ce3 bf3e 8b36 c0bd b670 983e
00000170: cf31 adbe 63c4 ab3e c9db 733e e8d7 aebe
00000180: a0a8 e13e 4be2 bebe f664 2abe 226d bdbc
00000190: c39b 95be d784 8dbe 466a 153c e49b 1dbd
000001a0: a03e b3be 4368 5cbe 44d6 0c3e ee58 f83e
000001b0: 0385 f6be 00b3 533e 3283 503e 443e 183e
000001c0: 5df5 a63e a078 fb3e 7fb4 d7be a498 573f
000001d0: d2d3 50bd ae2c 343e 2454 d23d 9d62 c4be
000001e0: 2e60 1dbe da2a 96be 93e6 27be eef0 cbbe
000001f0: 0675 29be d4af 4dbe e690 913e 49c9 44be
00000200: 55ca 8cbe 7238 073e ce41 213f e90a 0abf
00000210: 8a42 ea3e 79e5 10bf 9ee6 ce3d c948 2dbe
00000220: a3a6 073f d50a a1be ae8c 94be 0353 ed3d
00000230: 789d 3e3e 871c 80be f75c 0fbc 1bf8 e8be
00000240: 1a96 8cbe e7d6 f4be f27c 363e 576a 3c3e
00000250: a5fa b4be d948 443e 7fd8 dc3e 3ab8 50be
00000260: f819 523d f0ad e4bd d946 253f 51ad 933e
00000270: d041 2c3f 1de0 0cbf 3911 eabe 9fed 793e
00000280: 14eb aa3e 0b25 8abd 860e 453e e86a 35be
00000290: 2a58 033d 5c9c 123e f6ea e03e 8556 123f
000002a0: 2121 ff3d cb53 dd3e b6e9 083f e8e3 1dbe
000002b0: 17e6 913c d57b ffbe 3d39 aa3c 7e1b 7d3e
000002c0: 4398 423d b526 83bd 6780 78be 0464 d4be
000002d0: 050e 323e cad1 a7be ba8f 15bf c137 463e
000002e0: 524f c03e b475 3ebe 5d27 85be 280b bebe
000002f0: 273a 203e 8c6f 933e a539 ac3e 40d4 cbbe

linear_two.bias f4 [6]
0.08759901 -0.35363218 0.278063 -0.097446986 -0.2954686 0.23039754
00000000: 1c67 b33d 470f b5be 465e 8e3e 4992 c7bd
00000010: a947 97be 55ed 6b3e
