classifier/classifierOriginalLabels001.pth (torch, 36016 bytes, 4 tensors)

linear_one.weight f4 [32, 256]
000000 de 40 81 3d 96 aa 94 ba 33 a8 b5 bc ee c1 f2 3b
       0.063112006 -0.0011342342 -0.02217493 0.007408372
000010 bd 07 00 3d cc ab ec bc 7b 66 8b 3c db 7e 9b bd
       0.03125738 -0.028890513 0.01701664 -0.07592555
000020 43 ca 1d 3d 60 91 99 3c 0b 20 a6 3d 28 98 83 3c
       0.03852297 0.018746078 0.081115805 0.016063765
000030 a1 ec 05 3d 61 14 8a bb f0 fa 98 bd b8 3f 19 bd
       0.03269637 -0.004213855 -0.074697375 -0.037414283
000040 df 60 4a bc e3 8d 6e bd 88 f3 1d bd d7 b8 8f 3d
       -0.012352197 -0.058240782 -0.038562328 0.07017677
000050 44 60 23 3d fb bd 3d bd 1a e4 79 3b a3 63 7b bd
       0.039886728 -0.046323758 0.0038130344 -0.061374318
000060 fb 06 97 bd 9c 24 5e bd 9c ec e5 bc a8 25 8d bc
       -0.07374378 -0.054234132 -0.028066926 -0.01722987
000070 da b8 75 3d 42 75 74 3d 32 39 4b bd 09 69 47 3d
       0.05999074 0.05968214 -0.049615093 0.048684154
000080 05 e4 f5 bb ad 67 7e be ba 31 8b bd 9d d6 b1 bc
       -0.0075039887 -0.24844237 -0.06796594 -0.02170878
000090 22 4e c1 3d 99 51 66 3c f1 63 92 3d 0b b4 b7 bc
       0.09438731 0.01405754 0.071479686 -0.022424718
0000a0 a7 5d 7f bc 82 2e 73 bd 2d f2 a0 bc a1 52 24 3d
       -0.015586293 -0.059370525 -0.019646728 0.040117864
0000b0 ac 98 35 3d 72 d3 b5 3d f8 31 15 3e e2 e6 a9 3d
       0.044335052 0.088782206 0.14569843 0.082959905
0000c0 cf 30 ac 3d 4e 47 82 3d 84 4c a9 3c d4 a9 bf bc
       0.08407747 0.063612565 0.020666368 -0.02339641
0000d0 81 20 1f 3d 09 20 29 bd 43 d9 f7 bc ca 60 c1 3c
       0.038849358 -0.041290317 -0.030254966 0.023605723
0000e0 d5 b9 f8 bd 2b d7 0a 3e 22 83 2d bd e7 58 b4 3d
       -0.1214482 0.13558643 -0.042361386 0.08806019
0000f0 d3 18 56 3d 5c 16 89 bd 8a d1 c8 3c 33 3a a4 bd
       0.052269768 -0.06693718 0.024513979 -0.08018913
000100 22 e5 5e 3d cf 72 41 bb 5a 2d 90 3a 7d f8 de 3a
       0.054417737 -0.0029517894 0.0010999844 0.0017011311
000110 07 fb 2f 3d 02 6a a3 3a e6 3a 3e bd 39 72 b6 bb
       0.042964008 0.0012467506 -0.04644289 -0.0055678156
000120 fc e1 01 be 7c 65 56 bd 03 69 86 bd a4 83 97 bc
       -0.12683862 -0.052342877 -0.06562998 -0.018495388
000130 83 06 5c 3c de 44 d8 3d dd c7 ec 3d 4c 70 3d bd
       0.013429287 0.105600104 0.115615584 -0.046249673
000140 95 21 c9 3c 4a 5a ff bb 01 16 46 3d 5d aa 92 3c
       0.024552146 -0.0077927457 0.04836083 0.017903501
000150 e3 b7 56 bd 30 6a f5 3c 6e 8b 67 3e 3f a6 36 bd
       -0.05242146 0.02995786 0.22611782 -0.04459214
000160 55 08 34 bd 3c 86 ec bc 16 77 9d bc 9b 54 f7 bc
       -0.04395326 -0.028872602 -0.019221824 -0.03019171
000170 d1 29 6d 3d 7e f7 9b 3d 37 7c db bb 2b c7 3c 3c
       0.057901207 0.07615565 -0.006698157 0.011522095
000180 0a 93 21 3d d2 f4 b0 bd 7d 5b ee bb 1b 32 2b bc
       0.039446868 -0.08640446 -0.00727409 -0.010448958
000190 80 86 87 bd 1b 0b 3a bc 5e cd 08 3e 08 64 43 bd
       -0.06617451 -0.011355187 0.13359591 -0.04770282
0001a0 87 7f 15 bc 08 58 f8 b8 b8 39 99 bc 71 43 df 3b
       -0.009124643 -0.000118419586 -0.01870428 0.0068134596
0001b0 94 cb 0f 3d 06 45 03 bd dc 39 dc 3d cb 37 e9 bc
       0.035106257 -0.032048248 0.10753223 -0.028468987
0001c0 63 5c 04 3d 14 a3 e8 bc 98 8b 18 bd 79 07 5e bb
       0.03231467 -0.028398074 -0.037242502 -0.0033878966
0001d0 82 f0 04 3d 67 13 27 bd 12 1f a2 bc b0 49 88 3b
       0.03245593 -0.040789988 -0.019790206 0.004159175
0001e0 c0 dc 6d 3a f9 e6 6a 3d 20 03 6b 3d af af 1b 3c
       0.0009073727 0.05734918 0.057376027 0.009502335
0001f0 d7 85 15 bd cf d8 9b bd fb 30 a3 bd d2 ec 8e bd
       -0.036504593 -0.07609712 -0.07968327 -0.06978764
000200 8f 50 b0 bd 6e c4 91 bc fe 18 a6 3d c3 ad 83 bc
       -0.08609115 -0.01779386 0.08110236 -0.016074067
000210 03 43 72 3d 20 66 9a 3c 44 70 5d 3b 09 ed 3f bc
       0.05914594 0.018847525 0.003378884 -0.011714228
000220 4a 0d 96 bc 38 eb c0 bd 2c 02 ca 3c 59 02 fa 3c
       -0.018316884 -0.094198644 0.024659239 0.030518698
000230 8e d2 c2 3d 6e 17 6f bc 99 3e bb bc 98 a7 29 3e
       0.09512816 -0.014592988 -0.022856997 0.16567838
000240 ad 73 88 bd 31 2e 11 bd ba be 26 bc 84 95 b5 3c
       -0.066626884 -0.035444442 -0.010177309 0.022166021
000250 1d 07 de bc 53 d7 e7 bc 22 ea 50 bc d2 c6 af bb
       -0.027103001 -0.028300917 -0.012751134 -0.0053642774
000260 ea a7 d7 bd 08 bb 38 bd 28 79 b9 bd 09 db 1a bd
       -0.10530074 -0.045100242 -0.09056312 -0.037806544
000270 5d 2a c7 3b 02 b0 82 bd 91 9c 6c 3c 91 78 cc bc
       0.006078048 -0.06381227 0.014441625 -0.024959834
000280 b8 04 3d bd f9 24 93 bc fd 21 39 3d 27 1e 9f 3b
       -0.04614708 -0.017961966 0.04519843 0.0048558894
000290 e8 0f 6f 3c 67 ba 9c bb 45 8e 65 3d a2 98 0b 3d
       0.014591195 -0.004782963 0.056043882 0.03408111
0002a0 39 51 c7 3c 18 35 66 bd d0 8d 4c 3b 70 b2 54 3d
       0.024330722 -0.056202978 0.0031212457 0.051927984
0002b0 8a 2d 96 3d a3 b7 8a bd f0 c0 02 bb dc 23 dc bc
       0.07332905 -0.06773307 -0.0019951425 -0.026872568
0002c0 a8 5c 90 bd cd 5f 4e bd 6c ad 0d 3d ef d0 a9 3b
       -0.07048923 -0.05038433 0.034589216 0.0051823775
0002d0 f3 1a f9 bb 94 7b 91 3d 8c da 62 bd aa c7 49 3d
       -0.0076020896 0.07103649 -0.055384204 0.04926268
0002e0 bc b9 86 bd da 84 31 3d c7 e8 14 3d 9a f0 79 3c
       -0.06578395 0.043339588 0.036354806 0.015255118
0002f0 97 38 84 3c 85 3b e5 3b 63 8d bd bc 1e dc 1f 3c
       0.016140265 0.0069956207 -0.023138708 0.00975707
000300 77 8d 61 be 9c ac f3 bc 9d 54 30 3d 62 16 61 3d
       -0.22026621 -0.029745393 0.043049444 0.054952987
000310 d1 28 94 3d ac 13 e6 bc a9 0e 42 bd 24 b0 a1 3c
       0.072343476 -0.028085552 -0.047377262 0.01973731
000320 e1 95 4b bd 46 8d 63 3d b5 57 04 bd 46 ff 30 bd
       -0.049703483 0.05555465 -0.032310206 -0.043212198
000330 84 98 4c 3d 23 d8 90 3d f1 e4 8c bc 97 59 41 3d
       0.049950138 0.07072475 -0.017199012 0.04720458
000340 24 fd 33 bd 50 ea 29 3d 96 26 e7 bc 72 2b 90 bd
       -0.043942586 0.041483223 -0.028216641 -0.070395365
000350 d7 f9 89 bd c3 a7 5e bc e5 59 a1 3c 91 76 da bc
       -0.06737106 -0.013589802 0.019696185 -0.026667865
000360 4b 57 71 3c 4f eb 44 bc 6a ce 75 bd 7b c0 ed ba
       0.014730285 -0.012018993 -0.060011305 -0.0018139029
000370 ef e6 a0 bd 3e 77 e7 3d 0c af e9 bc 97 fb 60 bc
       -0.07856547 0.113020405 -0.028525852 -0.013731859
000380 68 1c 6b bd 65 d4 c6 bc 4b 01 8a be 71 0e c5 bc
       -0.057400137 -0.0242712 -0.2695411 -0.024054738
000390 69 bd 8b 3d 5e 9c af bd 17 f4 bd bc 6f 1a 9a 3d
       0.068232365 -0.085747465 -0.02318768 0.07524573
0003a0 af d0 9e bd b4 57 60 bd 17 82 12 be 37 8c 95 bc
       -0.07754647 -0.05477114 -0.14307438 -0.018255336
0003b0 78 11 c7 bc 88 fd 35 bd dc f7 cc 3d 96 bf 80 3d
       -0.024300322 -0.04443124 0.10008213 0.06286542
0003c0 a4 20 9e 3c 3c 89 f1 3c 2a e6 1f 3c cc 90 35 bd
       0.019302674 0.029484384 0.009759465 -0.044327542
0003d0 99 e8 c6 3b 1a 9c 0b bd 25 a3 0a bc 0b ed 4c 3d
       0.0060702083 -0.034084417 -0.008461748 0.05003075
0003e0 17 f4 5b 3c 72 6c 72 bd be b7 93 bd 26 2e 19 bd
       0.013424895 -0.059185453 -0.072127804 -0.037397526
0003f0 e2 ea a6 3a ce 8e 0d be 29 b3 c4 3c 59 97 13 3d
       0.0012734795 -0.13824007 0.024011211 0.03603301

linear_one.bias f4 [32]
000000 c5 67 80 3d c5 40 93 3d 78 e1 aa 3d 6c 3d 37 3e
       0.062697925 0.07190088 0.08343786 0.17894524
000010 0c 73 19 3c 8f da ce 3d 67 af 34 3d 39 78 8a 3c
       0.009365808 0.101002805 0.04411259 0.01690303
000020 f1 90 25 3e 87 80 c9 3d c9 c7 5f 3e c0 1f 26 bc
       0.16168572 0.09838968 0.21853556 -0.010139406
000030 dc 70 56 3e 66 a2 0d 3e 68 6e 8b 3d 0d eb 5b 3d
       0.2094149 0.13831481 0.06808168 0.05369096
000040 50 41 e0 3d 05 1d 4c 3e 49 13 38 3e d2 11 32 bc
       0.10949957 0.19932945 0.17976107 -0.0108685065
000050 00 03 e7 3d 46 54 f4 3d d0 6f dd 3d bc 8e f3 3d
       0.11279869 0.119301364 0.10812342 0.11892459
000060 85 e4 14 3e 76 ca 61 3d a5 b8 36 3c cd 9b d0 3d
       0.14540298 0.055124722 0.011152421 0.10185967
000070 38 ca 56 bb 43 b3 fd 3d 7c e0 4a 3d f7 6b 7c 3e
       -0.003277434 0.12387707 0.04953049 0.2465056

linear_two.weight f4 [6, 32]
000000 39 4c 81 be c0 f1 8d be 01 10 1b bf 3f 91 26 3f
       -0.25253466 -0.27723503 -0.60571295 0.6506538
000010 30 d7 42 3e f1 0b c4 bc 6a f7 46 be fc ea 87 be
       0.190274 -0.023931475 -0.19430318 -0.26546466
000020 f9 cb 69 be 2e a1 d8 be 04 7b 5d be e6 a6 c9 3d
       -0.22831716 -0.4231047 -0.21628958 0.098462865
000030 b7 3f 82 3e 26 bd 4c 3f ba c7 e3 bd 48 42 a3 3e
       0.25439236 0.7997612 -0.11122079 0.31886506
000040 28 e1 0e bf 84 97 91 be d8 fc 5c 3f 6c f9 9e 3d
       -0.5581231 -0.2843591 0.8632331 0.07762417
000050 bc 90 0d 3f d0 54 31 be db 7d 17 3c 0e a2 5e be
       0.5529897 -0.1731751 0.009246315 -0.21741506
000060 22 25 0e bf 5d 02 c9 3e be fe 84 be c0 7c bd 3e
       -0.5552541 0.39259616 -0.25975603 0.3700924
000070 e6 00 b1 3d 61 af 36 3e fc 72 1f 3d 2a fa 52 3f
       0.086427495 0.17840339 0.038928017 0.8241297
000080 60 e6 11 be 31 73 d3 be d6 69 d8 be 15 5a b6 be
       -0.14248037 -0.41298822 -0.42268246 -0.35615602
000090 a0 16 12 bc 5a 78 ac 3e f2 59 fd bd 07 05 05 be
       -0.008916527 0.3368557 -0.12370671 -0.12990199
0000a0 55 6f 9a bd 12 20 0d be 9b 25 c2 be c7 37 76 be
       -0.07540766 -0.13781765 -0.37919316 -0.24044715
0000b0 e5 05 15 be 29 07 88 be 3b 4f 2b be 3f df 6a 3e
       -0.1455303 -0.26567963 -0.16729443 0.22936724
0000c0 7c 37 54 3f b3 4a 0f 3e 81 f2 10 bb 99 6d dd be
       0.8289716 0.13993339 -0.00221172 -0.4324768
0000d0 8c 74 ed bc c1 a5 cd be 13 b3 25 be e4 d0 a4 be
       -0.028986238 -0.40165523 -0.16181593 -0.3219062
0000e0 bc dc b0 be d1 95 da bd f4 dd 96 bd d1 c1 2a 3e
       -0.34543407 -0.106731065 -0.07366553 0.16675498
0000f0 97 65 70 be 93 68 8c be 77 05 a5 bd 0e 4a 81 be
       -0.23476253 -0.27423534 -0.08057683 -0.25251812
000100 fd c4 c5 be dc 41 17 3f 5f 23 5c 3d 07 b9 bf 3e
       -0.38626853 0.5908487 0.05374467 0.37445852
000110 81 e1 b5 be c5 3d d1 3d 12 24 8a be fd 33 40 3d
       -0.35523608 0.1021686 -0.26980644 0.04692458
000120 64 d8 24 3e 96 e5 0c 3f eb 1b 11 3f e0 5d db be
       0.16098171 0.5503782 0.56683224 -0.42845058
000130 c6 06 e4 3e 12 85 0f 3d 27 07 17 3e 1b 40 f1 be
       0.44536418 0.035039015 0.14748822 -0.4711922
000140 76 ff 01 bf c5 97 8f 3e d7 ec 0b bf 76 34 cf be
       -0.5078043 0.28045478 -0.54658264 -0.40469712
000150 94 a4 8c be 54 38 e2 3e 26 d2 5d be 97 c2 07 3f
       -0.27469313 0.441836 -0.21662197 0.53031296
000160 d5 9f c2 3e 86 e1 c9 3e a9 f5 c4 bd 7d 58 9e 3e
       0.38012567 0.39429873 -0.096171685 0.30926886
000170 a8 3f b6 be e2 1b b1 3e 25 df 7a 3e 0d aa b0 be
       -0.3559544 0.34591585 0.24499185 -0.34504738
000180 4d ad e9 3e 3d 40 c3 be 1a f2 2d be bd 3f cb bc
       0.4564003 -0.38134947 -0.16986886 -0.024810666
000190 db da 99 be 14 4f 93 be 37 ce 1f 3c 6d bd 27 bd
       -0.30049786 -0.2877127 0.009753755 -0.040952135
0001a0 c4 d5 b9 be a4 b4 5e be f3 d6 12 3e 42 de fd 3e
       -0.36295903 -0.21748596 0.14339809 0.49583632
0001b0 03 61 fd be d0 66 54 3e 12 0e 5a 3e 6b d3 17 3e
       -0.49488077 0.20742345 0.2129443 0.14826743
0001c0 ba d1 ab 3e a0 da 00 3f 5b e1 da be de b8 5b 3f
       0.33558446 0.50333595 -0.42750058 0.8582896
0001d0 68 31 49 bd 8d 3e 42 3e e6 55 eb 3d f8 7e ca be
       -0.049119383 0.18969174 0.11490993 -0.39549994
0001e0 67 48 2a be 8b 85 9a be 61 8c 25 be 71 c7 cf be
       -0.16629182 -0.3018001 -0.16166832 -0.4058185
0001f0 79 6a 31 be 63 74 51 be 2f 7d 95 3e b2 2a 46 be
       -0.17325772 -0.20454554 0.2919707 -0.19352224
000200 c4 69 8b be b4 ab 08 3e 08 dc 25 3f 4b 5f 0e bf
       -0.2722913 0.1334675 0.64788866 -0.55614156
000210 27 73 ef 3e 13 00 16 bf 2f 52 d7 3d 7c 41 34 be
       0.46767542 -0.58593863 0.10513722 -0.17603105
000220 62 4a 09 3f 1b 56 a7 be 15 ba 9a be a3 00 fa 3d
       0.53629124 -0.3268288 -0.30220094 0.12207153
000230 60 f9 3f 3e 0b 74 84 be 5a 41 5d bc d3 79 ed be
       0.18747473 -0.25869784 -0.013504351 -0.46382007
000240 28 3c 8a be 8d d8 fb be 44 e5 40 3e d8 85 49 3e
       -0.2699902 -0.49188653 0.18837458 0.19679964
000250 fb 1a bb be 59 10 48 3e be 00 e5 3e e4 83 56 be
       -0.36544022 0.19537486 0.4472713 -0.2094875
000260 21 6a 70 3d 8f 16 fe bd 37 5c 28 3f 37 e5 96 3e
       0.058694962 -0.124066465 0.6576571 0.29471752
000270 0a 45 30 3f d1 69 11 bf b0 dc f5 be 77 33 82 3e
       0.68855345 -0.5680209 -0.48019934 0.2542989
000280 39 d8 ad 3e d8 54 8e bd 7e e6 4c 3e 71 20 35 be
       0.33954027 -0.069497764 0.20009801 -0.17688157
000290 03 a0 1b 3d f6 69 18 3e 30 bf e7 3e 9c 63 17 3f
       0.037994396 0.14884171 0.45263052 0.59136367
0002a0 68 d0 0c 3e 88 09 e2 3e b9 39 09 3f 62 39 20 be
       0.13751376 0.44147897 0.536037 -0.1564689
0002b0 e8 99 68 3c 49 13 04 bf 50 38 7c 3c 6d 8b 82 3e
       0.01419685 -0.51591927 0.015394285 0.25496998
0002c0 93 ec 5f 3d 10 3a 96 bd 0c e5 7a be 3c 8b db be
       0.054668974 -0.07335293 -0.24501437 -0.42879665
0002d0 43 85 37 3e ae 82 ae be 92 a2 1b bf 03 1a 52 3e
       0.17921929 -0.34084076 -0.6079494 0.20517735
0002e0 2f 98 c7 3e ef a9 45 be 40 71 88 be 5a 62 c8 be
       0.38983294 -0.19303106 -0.26648903 -0.39137536
0002f0 44 15 27 3e 13 ef 95 3e 20 65 b2 3e 63 95 d1 be
       0.16316706 0.29283962 0.34842777 -0.40934286

linear_two.bias f4 [6]
000000 44 1c ba 3d 3a 07 b4 be 4e 70 8d 3e 50 54 cf bd
       0.090874225 -0.35161763 0.27624744 -0.10123503
000010 41 ff 96 be d4 ae 6b 3e
       -0.29491618 0.2301591
